…
# model = ResNet9()
# model.build(input_shape=(None,32,32,3))

model.summary()

# TODO visualize (tried using functional API, but some more needed to get at residual blocks)
# tf.keras.utils.plot_model(
#     model, to_file='model.png', show_shapes=True, show_layer_names=True,
#     rankdir='TB', expand_nested=True
# )
#+END_SRC

#+RESULTS:
:RESULTS:
#+begin_example
Model: "sequential_9"
_________________________________________________________________
Layer (type)                 Output Shape              Param #   
=================================================================
conv2d_batch_norm_re_lu_121  (None, 32, 32, 64)        2048      
_________________________________________________________________
res_net9block_29 (ResNet9Blo (None, 16, 16, 128)       370560    
_________________________________________________________________
conv2d_batch_norm_re_lu_125  (None, 16, 16, 256)       296192    
_________________________________________________________________
max_pooling2d_58 (MaxPooling (None, 8, 8, 256)         0         
_________________________________________________________________
res_net9block_30 (ResNet9Blo (None, 4, 4, 512)         5905920   
_________________________________________________________________
max_pooling2d_60 (MaxPooling (None, 1, 1, 512)         0         
_________________________________________________________________
flatten_14 (Flatten)         (None, 512)               0         
_________________________________________________________________
dense_14 (Dense)             (None, 10)                5120      
=================================================================
Total params: 6,579,840
Trainable params: 6,575,360
Non-trainable params: 4,480
_________________________________________________________________
#+end_example
[[file:./.ob-jupyter/045b448a6b4d6271cab268b52c7dbe58fc04f259.png]]
:END:

Train

#+BEGIN_SRC jupyter-python :session j
batch_size = 128
num_epochs = 10  # The number of epochs (full passes through the data) to train for
…
